output/ptuning/checkpoint-3000/pytorch_model.bin (torch, 918333 bytes, 1 tensors)

transformer.prefix_encoder.embedding.weight f4 [16, 14336]
1.850758 1.5553975 0.9603693 -2.0227501 0.7550601 -1.2939835 0.026879014 -1.5909079
-0.8050634 1.571678 -0.4438083 -1.3453555 -0.7086917 -0.59932655 -0.8300013 0.73807114
1.6982129 -0.124154046 -0.595755 0.33751717 -0.70326954 1.0419835 0.8143532 1.677096
1.2966902 1.2163472 0.5255395 1.2310239 -0.22589076 0.08832384 -0.21075776 0.7831237
-1.2680781 -0.91859025 -0.11111248 1.8234676 0.22069846 -0.5212062 0.19111387 -0.65653414
-1.6512651 1.06788 -0.87254286 -0.6155393 -1.2591484 2.2303498 -1.1277205 -0.41759494
-0.99612105 -0.75723034 -0.024144815 0.6342101 -0.60387826 1.0790838 -0.7128188 -0.6259809
-1.2958865 0.0039590835 -0.17196937 0.5596534 -0.1973444 1.9288664 -1.0669539 1.2813637
1.4477639 0.755892 2.1043308 0.44953763 0.46388236 -0.09817334 -0.93971586 1.3909897
-0.28317076 0.4369732 -0.039800312 0.52925676 0.4589212 -0.7180917 -2.3188398 -0.6356291
0.08671693 -0.39677715 -1.4312602 -0.47198078 0.45522228 0.4265936 1.2582825 0.16258422
0.7843682 -0.36897948 -0.93707865 0.70637834 -1.8372759 -0.9172055 1.437327 0.40352714
-2.6104093 0.37378338 0.87728596 0.13357863 0.5300704 0.6983861 1.1775252 -0.5635426
-0.09043765 0.64940757 0.51494014 0.12162605 0.3799966 1.3630173 0.11829917 -0.3946988
-1.5701538 0.012955865 -0.52463007 0.59475094 0.6097931 0.20746024 -0.5056324 0.6390392
-0.12406908 0.124913886 0.02189078 0.825046 1.2026391 0.45459366 0.61191475 0.5196497
2.0412936 0.929606 -1.3345138 -1.0835949 -0.14150746 1.6598996 0.69842756 0.49743545
1.2228074 0.019847816 -1.8646864 0.82733214 -0.41821256 0.97936016 -0.6048959 0.7261825
-0.8788022 0.9327759 1.7473854 1.5561924 0.34645307 -0.32013673 -0.616302 0.20051643
0.23346232 1.0360086 -0.5809201 1.5308284 -2.599825 -0.2948351 -1.2849007 0.6888975
-1.827756 0.13466838 0.14544667 -0.28019786 0.16731285 -0.61044544 0.2970938 -1.2120363
-1.4785867 1.2326653 1.394053 -0.06466563 -1.6628578 0.6409491 0.65403557 2.116978
0.09940451 0.21522596 -0.897566 -0.20733865 -0.952086 -1.4701296 -1.0130906 -0.6268458
-0.6309075 -1.5728389 -1.8024698 0.028084205 1.1383351 -0.4365263 0.8304207 0.81962126
1.8983884 -1.0419601 0.8375223 -0.45560795 -1.0574114 0.3322674 0.38014433 1.4540873
0.6242308 1.9992375 -0.6317637 -1.058267 0.076391466 1.1305084 1.180668 0.530801
-0.7109883 -1.1089689 -0.6020704 -0.46841204 0.27747405 0.33384782 -0.04661872 -2.2349997
-0.3290803 1.2036675 -1.9051992 1.6293064 0.4227979 -0.6272399 0.9128358 1.5656497
0.07935541 1.787958 0.030147737 -1.1820347 -0.6965297 0.0011360791 0.28156924 2.102599
0.050458677 -1.0232755 -2.1096554 -1.2043433 -0.10370247 0.19940083 0.31572506 0.3767751
-0.8031772 0.1518839 -0.6510977 0.5838082 -0.9949484 0.08707963 -0.24512967 1.5877914
1.1374788 -0.58825624 0.739021 0.6238363 0.4293831 0.4780701 0.38924056 0.10857831
00000000: a3e5 ec3f 4417 c73f c3da 753f bd74 01c0
00000010: 9e4b 413f 40a1 a5bf 6131 dc3c dfa2 cbbf
00000020: a318 4ebf bf2c c93f d73a e3be 9c34 acbf
00000030: d26c 35bf 776d 19bf f77a 54bf 3bf2 3c3f
00000040: 0a5f d93f 7a44 febd 6683 18bf 0dcf ac3e
00000050: 7909 34bf b75f 853f 7479 503f 15ab d63f
00000060: f2f9 a53f 44b1 9b3f c289 063f 3192 9d3f
00000070: e84f 67be 21e3 b43d e2d0 57be cb7a 483f
00000080: 6250 a2bf bb28 6bbf f18e e3bd 6367 e93f
00000090: c7fe 613e c56d 05bf 5bb3 433e 9f12 28bf
000000a0: a85c d3bf 4bb0 883f f85e 5fbf fc93 1dbf
000000b0: c62b a1bf 0dbe 0e40 2559 90bf 01cf d5be
000000c0: ca01 7fbf d9d9 41bf 59cb c5bc 985b 223f
000000d0: c497 1abf 6b1f 8a3f 4b7b 36bf 4940 20bf
000000e0: 9cdf a5bf 33bb 813b bd18 30be 7245 0f3f
000000f0: a714 4abe 18e5 f63f f291 88bf ba03 a43f
00000100: 5450 b93f 2382 413f 5bad 0640 cc29 e63e
00000110: fd81 ed3e 1b0f c9bd 3891 70bf f30b b23f
00000120: c2fb 90be f4ba df3e a705 23bd 5f7d 073f
00000130: b8f7 ea3e dcd4 37bf df67 14c0 97b8 22bf
00000140: a598 b13d 6026 cbbe 8933 b7bf 77a7 f1be
00000150: e512 e93e 7a6a da3e 670f a13f 7a7c 263e
00000160: 5bcc 483f e1ea bcbe 63e4 6fbf 36d5 343f
00000170: db2b ebbf fbcd 6abf 55fa b73f 1c9b ce3e
00000180: f210 27c0 8960 bf3e d095 603f d6c8 083e
00000190: b2b2 073f 6ec9 323f 25b9 963f 5444 10bf
000001a0: 6037 b9bd 933f 263f 1ed3 033f 1417 f93d
000001b0: ea8e c23e 5a77 ae3f d646 f23d f615 cabe
000001c0: cdfa c8bf d644 543c 284e 06bf 9941 183f
000001d0: 671b 1c3f 7570 543e 2071 01bf 1398 233f
000001e0: ee17 febd dad2 ff3d 4b54 b33c 3736 533f
000001f0: 14f0 993f 80c0 e83e 72a6 1c3f c307 053f
00000200: 8ea4 0240 a9fa 6d3f 59d1 aabf 3db3 8abf
00000210: 55e7 10be 9777 d43f 26cc 323f dcaf fe3e
00000220: f484 9c3f e397 a23c 0bae eebf 0acc 533f
00000230: f51f d6be 59b7 7a3f 75da 1abf 19e7 393f
00000240: 2ef9 60bf 67ca 6e3f 53aa df3f 5031 c73f
00000250: 4c62 b13e f6e8 a3be f8c5 1dbf 2e54 4d3e
00000260: bf10 6f3e ee9b 843f 2eb7 14bf 2ff2 c33f
00000270: 8863 26c0 a0f4 96be a077 a4bf 965b 303f
00000280: e9f3 e9bf 82e6 093e f9ef 143e 1876 8fbe
00000290: 0f54 2b3e 2746 1cbf ae1c 983e 0124 9bbf
000002a0: 5442 bdbf fac7 9d3f 5470 b23f 6a6f 84bd
000002b0: 86d8 d4bf 3d15 243f e06e 273f 917c 0740
000002c0: 9794 cb3d 3264 5c3e e3c6 65bf 9550 54be
000002d0: e8bb 73bf 352d bcbf f4ac 81bf f778 20bf
000002e0: 2783 21bf c952 c9bf 55b7 e6bf d910 e63c
000002f0: f7b4 913f 6080 dfbe 7396 543f b3d2 513f
00000300: 64fe f23f f35e 85bf dd67 563f 7245 e9be
00000310: 4259 87bf f41e aa3e 47a2 c23e 881f ba3f
00000320: 97cd 1f3f 04e7 ff3f 44bb 21bf 4b75 87bf
00000330: 2173 9c3d 80b4 903f 2120 973f 93e2 073f
00000340: 5403 36bf b1f2 8dbf 4921 1abf b4d3 efbe
00000350: 1411 8e3e 1aee aa3e 45f3 3ebd 3c0a 0fc0
00000360: 377d a8be c711 9a3f 91dd f3bf 1d8d d03f
00000370: f778 d83e cb92 20bf 9baf 693f 3667 c83f
00000380: 1785 a23d cfdb e43f 63f8 f63c ea4c 97bf
00000390: c54f 32bf 7de8 943a d829 903e fb90 0640
000003a0: c2ad 4e3d b1fa 82bf 9804 07c0 ec27 9abf
000003b0: f661 d4bd bb2f 4c3e b7a6 a13e aae8 c03e
000003c0: 059d 4dbf 7487 1b3e 57ae 26bf 7474 153f
000003d0: f0b4 7ebf ce56 b23d 4603 7bbe c03c cb3f
000003e0: e898 913f f697 16bf 7b30 3d3f bcb3 1f3f
000003f0: 1ad8 db3e 9bc5 f43e 8a4a c73e 4e5e de3d
