output/ptuning/checkpoint-4000/pytorch_model.bin (torch, 918333 bytes, 1 tensors)

transformer.prefix_encoder.embedding.weight f4 [16, 14336]
00000000: 7f04 ec3f 48b1 c73f 39c0 773f 4de4 00c0
00000010: bbb3 423f 32d9 a6bf 8b2c 053d d0ff cbbf
00000020: c497 50bf b550 c83f 379b e8be a404 abbf
00000030: 53d8 32bf 6bd4 1bbf 516c 56bf 2f19 3a3f
00000040: 80be da3f cf8b 03be 8b1c 1bbf 73bd a73e
00000050: 6b29 31bf d1a7 843f 0791 523f b96c d53f
00000060: b3a3 a63f 12aa 9a3f 0e27 043f ca3f 9c3f
00000070: fad9 6ebe 08b1 c63d 517e 4fbe 2291 473f
00000080: c2fb a0bf b678 6dbf 1263 cebd dcb2 ea3f
00000090: 6e18 583e b3f9 07bf 821f 393e 3963 25bf
000000a0: 5295 d4bf 42a5 893f bda9 5dbf b9a6 1bbf
000000b0: a488 a1bf 2752 0f40 6d0c 8fbf d871 d2be
000000c0: 9998 80bf c860 44bf 6c7e 0bbd 5ff7 243f
000000d0: 0d35 1dbf 10d3 883f c8ee 33bf 25a1 1dbf
000000e0: bc8e a4bf 0bd3 f03b 3b84 3abe d696 0c3f
000000f0: f642 54be aa1f f83f 3136 87bf 68b6 a23f
00000100: 5af8 b93f fbf5 3e3f 460f 0640 d6ca e03e
00000110: 26cb f23e 99ef b4bd 28f4 6dbf 865f b33f
00000120: 4850 96be b08d db3e c133 4cbd b711 0a3f
00000130: 1bd3 e53e d724 3abf e211 15c0 7205 20bf
00000140: 43be c13d dd33 cebe 776c b8bf 8c84 ecbe
00000150: e056 e43e 4855 d53e d65b a23f 928b 303e
00000160: b47e 493f ada2 b7be 743e 6dbf 4769 373f
00000170: e17c ecbf a839 6dbf 3443 b93f 35aa cb3e
00000180: 92b2 27c0 5e36 ba3e 9241 633f c8ff 123e
00000190: 1718 053f 6882 353f 4007 983f 64da 12bf
000001a0: 3077 a5bd 9ba1 233f 1d56 063f 2f57 f43d
000001b0: e0b9 c73e 4bbf af3f b2d6 033e 4d00 cfbe
000001c0: 5852 cabf b079 bc3c 2753 04bf 5aed 1a3f
000001d0: 376a 193f b853 5f3e e61c 04bf b226 263f
000001e0: af5f 09be 756d ea3d dae1 3c3c c587 553f
000001f0: e238 9b3f 7bef ed3e 7ce9 193f b9a8 073f
00000200: 1c48 0340 d16b 6b3f 3c97 a9bf 288a 8abf
00000210: 3d23 12be d6f7 d43f 056b 343f 0730 fa3e
00000220: f363 9d3f 76ce d73c d318 f0bf 8248 513f
00000230: 6171 d7be b6e7 773f c617 18bf 952f 3c3f
00000240: a65f 5ebf d0d4 6f3f 5916 e13f 6294 c83f
00000250: 86e4 b53e 42b8 a9be a321 1bbf ee58 563e
00000260: 04be 633e c359 853f dd43 17bf 54a7 c23f
00000270: 720a 27c0 5a60 91be 6ea4 a5bf 7d88 2d3f
00000280: 70fa e8bf c018 ff3d 8ae8 1f3e 91aa 8abe
00000290: 2f50 203e beac 19bf 9186 9d3e 028a 9cbf
000002a0: 56da bbbf 3c66 9c3f 6ac3 b33f 262c 9abd
000002b0: e228 d6bf 5e8a 213f 54ae 243f a313 0840
000002c0: b5cd d53d 96d7 673e 0e5b 68bf 627d 5abe
000002d0: 0c3a 75bf e5ce babf d74d 80bf 77fb 22bf
000002e0: 2534 24bf dc1e cabf eb55 e5bf e480 943c
000002f0: 9e06 933f cce7 d9be 165c 573f f59f 543f
00000300: 715e f43f e0be 86bf 85ad 533f 30b0 eebe
00000310: 94fb 85bf 603d a93e c761 bd3e 865c bb3f
00000320: 6b4c 223f 6786 fe3f b290 24bf 95de 88bf
00000330: 0a32 873d 6504 923f a8b8 953f 669d 093f
00000340: 715e 33bf 6b35 8fbf 8dbd 1cbf c136 eabe
00000350: 9ca9 933e 9c68 a53e a8ad 15bd 267d 0ec0
00000360: af96 a4be 9e73 9b3f 8a41 f5bf 2cee d13f
00000370: 98e2 dd3e f954 23bf e007 673f 5c09 c73f
00000380: 4248 ae3d 3634 e63f f313 9e3c eca3 98bf
00000390: 6914 35bf 50b1 00bc 0aab 8a3e fe33 0740
000003a0: db75 7a3d 8450 84bf 2871 07c0 7888 9bbf
000003b0: 8dd7 eabd 52f4 563e d830 a73e aa8a c23e
000003c0: 87de 4abf b182 103e 2161 29bf 0c31 183f
000003d0: 02b2 80bf e8d1 c83d 8cda 6fbe 47a2 cc3f
000003e0: 0339 903f 37d5 13bf b796 3a3f 6f66 223f
000003f0: b592 d63e 0aca ef3e 8b99 c13e 8ec1 c93d
1.8438872 1.5600977 0.96777683 -2.0139344 0.76055497 -1.3035033 0.032513183 -1.5937443
-0.81481576 1.564963 -0.4543092 -1.3360791 -0.69861335 -0.60871 -0.8375903 0.7269468
1.7089386 -0.12846301 -0.6059043 0.32761726 -0.69203824 1.0363714 0.82252544 1.6673805
1.3018707 1.2083151 0.5162209 1.2206967 -0.23325339 0.09701735 -0.2026303 0.7795583
-1.257683 -0.92762315 -0.1007749 1.8335834 0.21103069 -0.53115386 0.18078426 -0.64604527
-1.6608069 1.0753558 -0.86587125 -0.60801274 -1.2619824 2.2393892 -1.1175667 -0.4110248
-1.0046569 -0.76710176 -0.034056112 0.6443996 -0.61409074 1.0689411 -0.70286226 -0.6157401
-1.2856059 0.007349377 -0.18214504 0.5491766 -0.20728669 1.9384663 -1.0563413 1.2711916
1.4528916 0.74594086 2.0946822 0.43904752 0.47420615 -0.08834762 -0.9295068 1.4013526
-0.29358125 0.42881536 -0.049854044 0.5393328 0.44887623 -0.72712463 -2.3292165 -0.6250831
0.09460118 -0.40273944 -1.4408101 -0.46194875 0.4459753 0.41666627 1.2684276 0.17240742
0.7870896 -0.358663 -0.9267342 0.71645015 -1.847561 -0.926661 1.4473634 0.39778295
-2.620274 0.36369604 0.8877193 0.14355385 0.51989883 0.7090211 1.1877213 -0.5736449
-0.08079374 0.63918465 0.5247515 0.119306915 0.39009 1.3730253 0.12874869 -0.40429917
-1.5806379 0.023007244 -0.5168938 0.6051842 0.59927696 0.2180928 -0.51606596 0.64902794
-0.13415407 0.114466585 0.011528457 0.8341029 1.2126734 0.46471772 0.60121894 0.52991825
2.0512762 0.9196139 -1.3249278 -1.0823412 -0.14271255 1.6638134 0.704758 0.48864767
1.2296127 0.026343565 -1.8757576 0.81751263 -0.4207869 0.9683794 -0.59411275 0.73510104
-0.868647 0.936841 1.7584945 1.5670283 0.35525912 -0.3314839 -0.605982 0.20932361
0.22240454 1.0418018 -0.59087926 1.5207314 -2.6100125 -0.28393823 -1.2940805 0.6778639
-1.8201427 0.124558926 0.1561605 -0.27083257 0.15655588 -0.6002921 0.3076673 -1.2229617
-1.4676006 1.22187 1.4044011 -0.07527952 -1.6731226 0.63101757 0.64328504 2.1261985
0.10439626 0.22640833 -0.9076394 -0.21336892 -0.957917 -1.4594389 -1.0023755 -0.63664955
-0.64142066 -1.5790668 -1.7916845 0.018127866 1.1486394 -0.4255966 0.84124887 0.83056575
1.9091321 -1.0527 0.82686645 -0.46618795 -1.04674 0.33054638 0.3698866 1.4637611
0.63397855 1.9884766 -0.6428329 -1.0692927 0.06601341 1.1407591 1.1696978 0.53755796
-0.7006598 -1.1188177 -0.6122673 -0.457449 0.2884034 0.32306373 -0.036542565 -2.2263885
-0.32146212 1.2144659 -1.9160626 1.6400809 0.4333694 -0.63801533 0.9024639 1.5549731
0.08509876 1.7984684 0.019296622 -1.1925025 -0.7073427 -0.007854775 0.27083617 2.1125484
0.061147552 -1.0337071 -2.1162815 -1.2151022 -0.11466894 0.20991638 0.32654452 0.37996417
-0.792458 0.14112355 -0.6616383 0.5944984 -1.0054324 0.098056614 -0.23423213 1.5987023
1.1267399 -0.57747215 0.7288622 0.6343755 0.41908804 0.4683383 0.37812456 0.09851371
