output/ptuning/checkpoint-2000/pytorch_model.bin (torch, 918333 bytes, 1 tensors)

transformer.prefix_encoder.embedding.weight f4 [16, 14336]
1.8667505 1.5410314 0.9443074 -2.042152 0.74061054 -1.2726271 0.013755534 -1.5888517
-0.7803885 1.588713 -0.41574892 -1.3664787 -0.73264885 -0.575566 -0.81277484 0.76576513
1.6714278 -0.11936174 -0.57008475 0.3618187 -0.7325256 1.0517263 0.7987851 1.6941888
1.2872132 1.2340385 0.5467697 1.2564831 -0.2130178 0.06847893 -0.22936137 0.79558957
-1.2943908 -0.8978912 -0.13669541 1.7983161 0.24350986 -0.49626574 0.21651867 -0.68254584
-1.6288368 1.0505124 -0.88574374 -0.62648207 -1.2543409 2.2077396 -1.1524682 -0.43381226
-0.9767723 -0.73398554 -0.0002495627 0.60950756 -0.578532 1.1041093 -0.7368085 -0.6511905
-1.3209194 0.0014399085 -0.14726926 0.58561635 -0.17377509 1.9047595 -1.0932972 1.3056419
1.4369262 0.7796835 2.1286767 0.4756906 0.43822014 -0.12288449 -0.965377 1.365422
-0.25763947 0.4583393 -0.014485151 0.5048893 0.48381957 -0.6956312 -2.2933965 -0.66189057
0.069294766 -0.38344124 -1.4091609 -0.49686414 0.47830272 0.45007458 1.2329162 0.13805647
0.7781674 -0.39470926 -0.9627664 0.6820809 -1.811711 -0.89570844 1.41319 0.41946867
-2.5868409 0.39877114 0.8513103 0.10924808 0.5551394 0.67200816 1.1524919 -0.5377963
-0.11285127 0.67379975 0.49035054 0.12948203 0.35456422 1.3384588 0.09200721 -0.37088847
-1.544284 -0.012115903 -0.5451873 0.5683968 0.6359421 0.18111044 -0.47956005 0.6143497
-0.09878607 0.15109152 0.047428083 0.80291796 1.1780586 0.429453 0.6387333 0.49443907
2.0159135 0.95252645 -1.3596746 -1.0893192 -0.14258422 1.64753 0.68350476 0.5194481
1.2061191 0.0052909446 -1.8352623 0.8516581 -0.41169223 1.0086751 -0.6341643 0.7049292
-0.9031437 0.9250871 1.7184037 1.5296055 0.32671532 -0.29035684 -0.6429445 0.17619683
0.2618901 1.0220187 -0.5541359 1.5565369 -2.5725899 -0.3234586 -1.262721 0.71775943
-1.8454792 0.16027914 0.11767241 -0.3049018 0.19518445 -0.6372449 0.2691365 -1.1841301
-1.5070812 1.2605952 1.3682314 -0.037330113 -1.6362524 0.66738975 0.68208885 2.094628
0.085194245 0.1856524 -0.8702724 -0.19440685 -0.9372223 -1.4981066 -1.0411832 -0.6018864
-0.6029656 -1.5553693 -1.830519 0.05505227 1.1103791 -0.4649957 0.80190706 0.79184115
1.8701897 -1.014108 0.8657095 -0.4280401 -1.0848324 0.34128258 0.4048406 1.4276936
0.6006339 2.0265152 -0.60253143 -1.029321 0.10224345 1.1034672 1.2097545 0.51569974
-0.7365344 -1.08288 -0.57444847 -0.4971068 0.24882858 0.3623363 -0.072979845 -2.2557566
-0.34611565 1.1754062 -1.876615 1.6010553 0.39498493 -0.5986422 0.9405121 1.593849
0.061607096 1.7604821 0.057876427 -1.1544671 -0.66820776 0.022268377 0.30943146 2.075871
0.022440935 -0.9962731 -2.0953083 -1.1763831 -0.07486765 0.17183031 0.28757077 0.37284803
-0.83172196 0.1800621 -0.6227032 0.5560656 -0.96728504 0.058784503 -0.27358937 1.5594045
1.1649692 -0.6167588 0.7662603 0.59736824 0.45681515 0.50373065 0.41847306 0.13560829
00000000: aef1 ee3f 8440 c53f 21be 713f 9eb2 02c0
00000010: a798 3d3f 72e5 a2bf e45e 613c 7e5f cbbf
00000020: 8ac7 47bf f35a cb3f 0bdd d4be c6e8 aebf
00000030: e08e 3bbf 4b58 13bf 0312 50bf 2f09 443f
00000040: 59f1 d53f ee73 f4bd 13f1 11bf 4d40 b93e
00000050: cc86 3bbf f89e 863f 2e7d 4c3f 2edb d83f
00000060: 67c3 a43f f9f4 9d3f 19f9 0b3f 70d4 a03f
00000070: 5721 5abe ae3e 8c3d b5dd 6abe c2ab 4b3f
00000080: 99ae a5bf 33dc 65bf e2f9 0bbe 392f e63f
00000090: a65a 793e 8b16 febe 12b7 5d3e 53bb 2ebf
000000a0: b97d d0bf 3177 863f 1ac0 62bf 2161 20bf
000000b0: 3e8e a0bf 9b4b 0d40 1484 93bf a41c debe
000000c0: c00d 7abf 7ae6 3bbf bdd7 82b9 b008 1c3f
000000d0: ac1a 14bf 7453 8d3f 7b9f 3cbf 6cb4 26bf
000000e0: e313 a9bf 50bb bc3a c1cd 16be f4ea 153f
000000f0: 19f2 31be 29cf f33f 2af1 8bbf 461f a73f
00000100: 33ed b73f 5699 473f 3d3c 0840 b88d f33e
00000110: 645e e03e ddaa fbbd f222 77bf 26c6 ae3f
00000120: 52e9 83be 73ab ea3e 2053 6dbc 6d40 013f
00000130: 33b7 f73e e314 32bf 02c7 12c0 a971 29bf
00000140: 6aea 8d3d 6952 c4be 625f b4bf fa64 febe
00000150: 18e4 f43e 2d70 e63e 33d0 9d3f ad5e 0d3e
00000160: fb35 473f 5517 cabe dc77 76bf db9c 2e3f
00000170: 25e6 e7bf 264d 65bf 69e3 b43f 99c4 d63e
00000180: cd8e 25c0 bb2b cc3e 79ef 593f 75bd df3d
00000190: 9e1d 0e3f ba08 2c3f db84 933f 05ad 09bf
000001a0: 911e e7bd 247e 2c3f 3a0f fb3e f096 043e
000001b0: 7189 b53e 9e52 ab3f 476e bc3d 18e5 bdbe
000001c0: 19ab c5bf c881 46bc 6591 0bbf 7482 113f
000001d0: 1acd 223f 0475 393e e588 f5be 0646 1d3f
000001e0: 5a50 cabd bcb7 1a3e f343 423d 088c 4d3f
000001f0: a0ca 963f 43e1 db3e 0784 233f 1e27 fd3e
00000200: ba04 0140 c6d8 733f d109 aebf d06e 8bbf
00000210: 9901 12be 43e2 d23f 2bfa 2e3f 8dfa 043f
00000220: 1c62 9a3f a95f ad3b e0e9 eabf 4406 5a3f
00000230: 53c9 d2be 441c 813f 9758 22bf 3d76 343f
00000240: 6d34 67bf 82d2 6c3f a7f4 db3f 1dca c33f
00000250: 3b47 a73e a7a9 94be 0398 24bf f16c 343e
00000260: 7616 863e 82d1 823f dadb 0dbf 9a3c c73f
00000270: 50a5 24c0 5e9c a5be d7a0 a1bf 15bf 373f
00000280: aa38 ecbf 3720 243e 3cfe f03d 171c 9cbe
00000290: 6fde 473e 7b22 23bf 42cc 893e 9391 97bf
000002a0: 09e8 c0bf 2f5b a13f 3522 af3f 76e7 18bd
000002b0: b870 d1bf 0eda 2a3f 609d 2e3f 630e 0640
000002c0: 527a ae3d aa1b 3e3e 2cca 5ebf 9712 47be
000002d0: cded 6fbf f5c1 bfbf 7e45 85bf 3a15 1abf
000002e0: f45b 1abf 5716 c7bf 724e eabf 7d7e 613d
000002f0: e720 8e3f eb13 eebe c849 4d3f 1ab6 4a3f
00000300: 6062 ef3f 4ace 81bf 239f 5d3f 1228 dbbe
00000310: cadb 8abf 97bc ae3e 4447 cf3e aabe b63f
00000320: 25c3 193f 6db2 0140 803f 1abf cac0 83bf
00000330: 0465 d13d 6a3e 8d3f 3cd9 9a3f e604 043f
00000340: 858d 3cbf d09b 8abf 0e0f 13bf c884 febe
00000350: ebcc 7e3e 2584 b93e 7576 95bd 515e 10c0
00000360: 1236 b1be b673 963f ec34 f0bf 61ef cc3f
00000370: 773b ca3e 9d40 19bf 67c5 703f 3e03 cc3f
00000380: b957 7c3d 7a57 e13f d50f 6d3d 94c5 93bf
00000390: aa0f 2bbf 2c6c b63c cd6d 9e3e 12db 0440
000003a0: 0dd6 b73c c10b 7fbf 8819 06c0 b993 96bf
000003b0: 3654 99bd 49f4 2f3e 7a3c 933e f0e5 be3e
000003c0: bbeb 54bf 3362 383e 7a69 1fbf 515a 0e3f
000003d0: fe9f 77bf 05c8 703d e813 8cbe 919a c73f
000003e0: b61d 953f e8e3 1dbf a329 443f 20ed 183f
000003f0: ade3 e93e 7ef4 003f 1a42 d63e e6dc 0a3e
