output/ptuning/checkpoint-1000/pytorch_model.bin (torch, 918333 bytes, 1 tensors)

transformer.prefix_encoder.embedding.weight f4 [16, 14336]
0	0x3ff22c79	1.8919822
1	0x3fc1c6cc	1.5138793
2	0x3f6cd9ff	0.92520136
3	0xc0047687	-2.0697343
4	0x3f375fd5	0.71630603
5	0xbf9f8267	-1.2461671
6	0xbc0f4784	-0.008745078
7	0xbfcbe854	-1.5930276
8	0xbf3f67e0	-0.74767876
9	0x3fceca9b	1.615558
10	0xbec1981c	-0.37811363
11	0xbfb1c1a2	-1.3887217
12	0xbf402be7	-0.7506699
13	0xbf0c9bb8	-0.5492511
14	0xbf4ada13	-0.79239005
15	0x3f493933	0.78602904
16	0x3fd1e4e0	1.6397972
17	0xbe031ba2	-0.1280351
18	0xbf0863c6	-0.5327724
19	0x3ecc32fb	0.39882645
20	0xbf451739	-0.7698856
21	0x3f8780dd	1.0586201
22	0x3f493705	0.7859958
23	0x3fd89835	1.692145
24	0x3fa3a5a3	1.2784923
25	0x3fa115b0	1.2584743
26	0x3f130f02	0.57444775
27	0x3fa5ae36	1.294379
28	0xbe5504ff	-0.20802687
29	0x3d35769f	0.04430258
30	0xbe813239	-0.2523363
31	0x3f52199d	0.8207033
32	0xbfab2782	-1.3371432
33	0xbf5fbf9b	-0.8740174
34	0xbe343aff	-0.1760063
35	0x3fe10bb3	1.7581695
36	0x3e8e6a9b	0.2781571
37	0xbee94677	-0.45561573
38	0x3e839b82	0.2570458
39	0xbf398177	-0.7246317
40	0xbfcc5990	-1.5964832
41	0x3f835d44	1.0262837
42	0xbf652f30	-0.8952513
43	0xbf207b23	-0.6268789
44	0xbfa0722d	-1.2534844
45	0x400aeb4b	2.1706111
46	0xbf985a73	-1.1902603
47	0xbeeab0a8	-0.45837903
48	0xbf72f038	-0.94897795
49	0xbf32fcfd	-0.6991728
50	0x3d13cb2c	0.03608243
51	0x3f1229cc	0.57095027
52	0xbf098bfb	-0.5372922
53	0x3f92806d	1.1445442
54	0xbf45e1eb	-0.7729785
55	0xbf30c7f0	-0.6905508
56	0xbfae1a56	-1.3601787
57	0x3c25a060	0.010109037
58	0xbddd9870	-0.10820091
59	0x3f207ce5	0.62690574
60	0xbe0dbae9	-0.13840832
61	0x3feefd26	1.8671005
62	0xbf916b53	-1.1360878
63	0x3fabc8fb	1.3420709
64	0x3fb6d1f2	1.428282
65	0x3f50af05	0.8151706
66	0x400acfab	2.168925
67	0x3f03c8bf	0.5147819
68	0x3ecace90	0.3961072
69	0xbe28775a	-0.16451779
70	0xbf80f250	-1.0073948
71	0x3fa98ec3	1.3246692
72	0xbe5ec2c2	-0.21753982
73	0x3efda990	0.49543428
74	0x3ced2ef2	0.02895305
75	0x3eef59d4	0.4674822
76	0x3f06799f	0.5252933
77	0xbf28ae85	-0.65891296
78	0xc0103377	-2.2531412
79	0xbf343750	-0.703969
80	0x3d391e2f	0.0451948
81	0xbeba8886	-0.36432284
82	0xbfb05ba4	-1.3777966
83	0xbf09dc49	-0.53851753
84	0x3f03f9aa	0.5155283
85	0x3ef802ea	0.48439723
86	0x3f985710	1.1901569
87	0x3dc88210	0.097904325
88	0x3f448e6a	0.76779807
89	0xbedec010	-0.43505907
90	0xbf8059fb	-1.002746
91	0x3f254a3d	0.64566404
92	0xbfe287d8	-1.7697706
93	0xbf5d8609	-0.86532646
94	0x3fb03f4b	1.3769315
95	0x3ee68970	0.45026731
96	0xc023465e	-2.5511699
97	0x3ee138a8	0.43988538
98	0x3f4f6997	0.8102049
99	0x3d935bb7	0.071952276
100	0x3f1871d9	0.5954872
101	0x3f215938	0.6302676
102	0x3f8e67db	1.1125444
103	0xbefd69ff	-0.4949493
104	0xbe1584cb	-0.14601438
105	0x3f36033e	0.710987
106	0x3ee655a7	0.44987223
107	0x3e176d78	0.14787853
108	0x3e9f8f92	0.31164223
109	0x3fa6f194	1.3042474
110	0x3d470afc	0.04859446
111	0xbea9edf6	-0.33189362
112	0xbfc07925	-1.503697
113	0xbd59e9d6	-0.05320152
114	0xbf14425c	-0.57913756
115	0x3f067335	0.5251954
116	0x3f2d63eb	0.6773059
117	0x3e0ea995	0.13931878
118	0xbedfc128	-0.43702054
119	0x3f12ee41	0.57394797
120	0xbd67adc5	-0.056562204
121	0x3e45547d	0.19270511
122	0x3db2ec88	0.08736521
123	0x3f4538a4	0.7703955
124	0x3f91cd52	1.1390784
125	0x3ec6d5c0	0.38834953
126	0x3f2eca6d	0.6827763
127	0x3ee971e1	0.45594695
128	0x3ffcc85a	1.9748642
129	0x3f7b4fe0	0.98168755
130	0xbfb37a69	-1.4021732
131	0xbf8d640e	-1.1046159
132	0xbe14264e	-0.14467737
133	0x3fd09209	1.6294566
134	0x3f2b32b1	0.66874224
135	0x3f0cc422	0.54986775
136	0x3f970df9	1.1801139
137	0xbb5c6bfe	-0.0033633704
138	0xbfe5bb36	-1.7947757
139	0x3f62ff83	0.8867113
140	0xbecb9c8e	-0.3976788
141	0x3f861551	1.0475255
142	0xbf2ec85c	-0.68274474
143	0x3f2d003d	0.6757849
144	0xbf6fdeef	-0.93699545
145	0x3f6dee66	0.9294189
146	0x3fd5c6b5	1.6701266
147	0x3fbee1df	1.491268
148	0x3e9a1a1f	0.30098054
149	0xbe78adbe	-0.24285027
150	0xbf2fd2f9	-0.68681294
151	0x3e0bd76a	0.13656393
152	0x3e9cd43f	0.3063068
153	0x3f800321	1.0000955
154	0xbf01dbe2	-0.5072614
155	0x3fcbee3e	1.5932081
156	0xc021baf3	-2.5270355
157	0xbebd870c	-0.37017095
158	0xbf9da8f6	-1.2317188
159	0x3f43945f	0.7639827
160	0xbfef49ea	-1.8694432
161	0x3e4606f6	0.19338593
162	0x3d94139e	0.07230304
163	0xbeb0158a	-0.34391433
164	0x3e75dabf	0.24009226
165	0xbf2eaeef	-0.6823568
166	0x3e62b4b4	0.22139245
167	0xbf91e611	-1.1398336
168	0xbfc6d83f	-1.5534743
169	0x3fa70040	1.3046951
170	0x3faa2d78	1.3295126
171	0x3bd2ae51	0.0064294715
172	0xbfcbee79	-1.5932151
173	0x3f362143	0.71144503
174	0x3f3a47f1	0.72766024
175	0x4003f9ba	2.062117
176	0x3d74722e	0.059679203
177	0x3e0e1122	0.13873723
178	0xbf530d86	-0.8244251
179	0xbe3fa2dd	-0.18714471
180	0xbf6b6b11	-0.91960245
181	0xbfc5869c	-1.5431705
182	0xbf8b2c07	-1.0872811
183	0xbf101028	-0.5627465
184	0xbf0e5c04	-0.55609155
185	0xbfc3a50a	-1.5284741
186	0xbff04b41	-1.8772966
187	0x3dcea35e	0.100897536
188	0x3f88006c	1.0625129
189	0xbf026653	-0.50937384
190	0x3f4104d2	0.7539798
191	0x3f404afc	0.7511442
192	0x3fe96cd9	1.8236343
193	0xbf77ff5f	-0.9687404
194	0x3f69afec	0.9128406
195	0xbec4899f	-0.38386247
196	0xbf908465	-1.1290404
197	0x3eb806ce	0.35942692
198	0x3ee13381	0.43984607
199	0x3fb0cb83	1.3812107
200	0x3f10e017	0.56591934
201	0x40046602	2.068726
202	0xbf0e2ed3	-0.555402
203	0xbf7b5acc	-0.9818542
204	0x3e11e648	0.14248002
205	0x3f88740c	1.0660415
206	0x3fa0eef7	1.2572926
207	0x3efc79ef	0.49311778
208	0xbf462c75	-0.77411586
209	0xbf84ee9b	-1.0385317
210	0xbf06e28f	-0.5268945
211	0xbf0b2850	-0.54358387
212	0x3e4f506f	0.20245527
213	0x3ed1f8c4	0.41010106
214	0xbdf13a74	-0.11778727
215	0xc0125dfa	-2.2869859
216	0xbebc63b4	-0.36794817
217	0x3f9089dc	1.1292071
218	0xbfea3790	-1.8298206
219	0x3fc71d69	1.555585
220	0x3eb42071	0.35181
221	0xbf0d17f2	-0.5511466
222	0x3f7cf5ff	0.9881286
223	0x3fd20112	1.6406577
224	0x3cf556c5	0.029948601
225	0x3fdb8281	1.7149202
226	0x3dd63b33	0.1046051
227	0xbf8de9b7	-1.1086949
228	0xbf1ee9f1	-0.62075716
229	0x3d4bc807	0.049751308
230	0x3eb53925	0.3539516
231	0x4001e3d8	2.0295315
232	0xbcc1b71e	-0.023646887
233	0xbf738f84	-0.9514086
234	0xc004ef1a	-2.0770936
235	0xbf90a56b	-1.1300482
236	0xbced501d	-0.028968865
237	0x3e008d2a	0.1255385
238	0x3e77bce8	0.24193156
239	0x3ec2f1ad	0.3807501
240	0xbf6116f0	-0.87925625
241	0x3e688c15	0.22709687
242	0xbf137fdb	-0.57616967
243	0x3f02b56b	0.5105807
244	0xbf6bb769	-0.92076737
245	0x3c8025a9	0.015642958
246	0xbea119eb	-0.31465086
247	0x3fc1a975	1.5129839
248	0x3f9ac675	1.2091814
249	0xbf2a3477	-0.66486305
250	0x3f50353e	0.8133124
251	0x3f0e66f4	0.55625844
252	0x3f010b05	0.5040744
253	0x3f0b794d	0.54481965
254	0x3eed193a	0.4630831
255	0x3e3a951d	0.18220945
