output/ptuning/pytorch_model.bin (torch, 918333 bytes, 1 tensors)

transformer.prefix_encoder.embedding.weight f4 [16, 14336]
1.8429576 1.5606449 0.9687839 -2.0127041 0.7613212 -1.3047345 0.03336806 -1.5941862
-0.8161239 1.5639673 -0.45569703 -1.3348379 -0.69726217 -0.6100268 -0.83866704 0.7255076
1.7103318 -0.12921713 -0.6072697 0.32627836 -0.6905745 1.0355157 0.82368714 1.6660556
1.3026227 1.2071676 0.51493293 1.2193244 -0.23427606 0.09820012 -0.20152864 0.7791543
-1.2562898 -0.92885405 -0.099391855 1.8349341 0.20969121 -0.5324866 0.17941119 -0.6446382
-1.6621507 1.0763876 -0.86495686 -0.6069231 -1.2623569 2.2406166 -1.1161824 -0.41017604
-1.0059044 -0.76846236 -0.035419457 0.6457841 -0.61545724 1.0675876 -0.7014965 -0.61435455
-1.2842078 0.007975673 -0.1835269 0.5477804 -0.20864518 1.9397581 -1.0549543 1.2698188
1.453572 0.7445582 2.0933661 0.43767816 0.47557658 -0.0870317 -0.928155 1.4027445
-0.29498315 0.42774644 -0.051195025 0.54071814 0.4475342 -0.7283212 -2.330609 -0.6236851
0.09572933 -0.40363142 -1.4421394 -0.46060815 0.44472966 0.41531035 1.2697746 0.17374322
0.7875538 -0.35726663 -0.9253347 0.71782166 -1.8489379 -0.92796063 1.4487427 0.39698198
-2.6216428 0.36232907 0.8890986 0.14492595 0.518521 0.71042496 1.1891022 -0.5750145
-0.07945439 0.63781226 0.5260815 0.11904168 0.39145124 1.3742934 0.13014014 -0.40556338
-1.5820321 0.024361573 -0.51583844 0.606573 0.59787554 0.21950589 -0.517465 0.6503815
-0.13549486 0.11307536 0.010131299 0.8352918 1.2140217 0.46608827 0.5998214 0.5313071
2.05263 0.9182533 -1.3236258 -1.0821111 -0.1429378 1.6643434 0.70561355 0.4873699
1.2306709 0.027174339 -1.8772082 0.81617904 -0.42112052 0.9669523 -0.59268016 0.7363121
-0.8672497 0.9374584 1.7599386 1.5684538 0.3565652 -0.33293575 -0.6046084 0.21049686
0.22096038 1.042657 -0.59218955 1.5194021 -2.611363 -0.28250554 -1.2953275 0.6764069
-1.8190877 0.12323377 0.15756755 -0.26961845 0.1551327 -0.5989508 0.3090704 -1.2243961
-1.4661565 1.2204336 1.4057876 -0.076694325 -1.6745015 0.6296784 0.64186585 2.1274765
0.10505513 0.22784738 -0.9089638 -0.21414909 -0.9586676 -1.4580077 -1.0009621 -0.63799196
-0.6427872 -1.5798949 -1.7902956 0.016815094 1.149998 -0.42413798 0.84267765 0.832016
1.9105569 -1.0541224 0.8254582 -0.4676073 -1.0453223 0.3304552 0.36851636 1.4650334
0.63531965 1.9870555 -0.64426863 -1.0707326 0.06460513 1.1421098 1.1682416 0.5384664
-0.6992688 -1.1200975 -0.6136073 -0.4560136 0.28984252 0.32166702 -0.035243645 -2.2252662
-0.32038498 1.2158988 -1.9174939 1.641512 0.4347751 -0.6394415 0.90107113 1.5535744
0.08586487 1.7998784 0.017856143 -1.1939014 -0.7087626 -0.009086598 0.26942465 2.1138623
0.062577784 -1.0350931 -2.1172109 -1.2165236 -0.11612546 0.21131834 0.3279775 0.38049352
-0.79103917 0.13972986 -0.66302055 0.59591335 -1.0068222 0.09950605 -0.23278667 1.6001427
1.1253134 -0.57605964 0.727534 0.63578576 0.4177529 0.46705356 0.37667626 0.097187996
00000000: 09e6 eb3f 36c3 c73f 3902 783f 25d0 00c0
00000010: f2e5 423f 8a01 a7bf f2ac 083d 4b0e ccbf
00000020: 7fed 50bf 1530 c83f 1f51 e9be f8db aabf
00000030: c67f 32bf b72a 1cbf e2b2 56bf deba 393f
00000040: 27ec da3f 7f51 04be 0776 1bbf f50d a73e
00000050: 7ec9 30bf c78b 843f 29dd 523f 4f41 d53f
00000060: 57bc a63f 7884 9a3f a5d2 033f d212 9c3f
00000070: 10e6 6fbe 251d c93d 865d 4ebe a876 473f
00000080: 1bce a0bf 61c9 6dbf f58d cbbd 1fdf ea3f
00000090: 4bb9 563e 0b51 08bf 91b7 373e 0207 25bf
000000a0: 5bc1 d4bf 12c7 893f d06d 5dbf 505f 1bbf
000000b0: e994 a1bf 4366 0f40 11df 8ebf 9802 d2be
000000c0: 7ac1 80bf f3b9 44bf fe13 11bd 1b52 253f
000000d0: 9b8e 1dbf b6a6 883f 4695 33bf 5746 1dbf
000000e0: ec60 a4bf 66ac 023c 7aee 3bbe 563b 0c3f
000000f0: 15a7 55be fe49 f83f be08 87bf 6c89 a23f
00000100: a60e ba3f 5e9b 3e3f b6f9 0540 5a17 e03e
00000110: c67e f33e ad3d b2bd 919b 6dbf 228d b33f
00000120: 0808 97be 9501 db3e e0b1 51bd 816c 0a3f
00000130: 3423 e53e 4273 3abf b328 15c0 d4a9 1fbf
00000140: bd0d c43d c7a8 cebe 0698 b8bf d5d4 ebbe
00000150: 9bb3 e33e 8fa3 d43e f987 a23f bee9 313e
00000160: 209d 493f a7eb b6be bce2 6cbf 29c3 373f
00000170: ffa9 ecbf d48e 6dbf 6770 b93f 3941 cb3e
00000180: ffc8 27c0 3283 b93e f79b 633f 7867 143e
00000190: cbbd 043f 69de 353f 8034 983f 2634 13bf
000001a0: fcb8 a2bd aa47 233f 47ad 063f 20cc f33d
000001b0: 4c6c c83e d9e8 af3f 7543 053e 01a6 cfbe
000001c0: 0780 cabf ec91 c73c fd0d 04bf 5e48 1b3f
000001d0: 5f0e 193f 27c6 603e 9678 04bf 677f 263f
000001e0: 2abf 0abe 0e94 e73d bffd 253c afd5 553f
000001f0: 1065 9b3f 1fa3 ee3e e58d 193f be03 083f
00000200: 4a5e 0340 a612 6b3f 926c a9bf 9e82 8abf
00000210: 495e 12be 3409 d53f 17a3 343f 8c88 f93e
00000220: a086 9d3f b89c de3c 5c48 f0bf 1cf1 503f
00000230: 1c9d d7be 308a 773f e3b9 17bf f37e 3c3f
00000240: 1404 5ebf 46fd 6f3f ab45 e13f 18c3 c83f
00000250: b78f b63e 8e76 aabe 9ec7 1abf 7d8c 573e
00000260: 7043 623e c975 853f bc99 17bf c57b c23f
00000270: 9220 27c0 91a4 90be 4bcd a5bf 0129 2d3f
00000280: ded7 e8bf fd61 fc3d 6359 213e 6e0b 8abe
00000290: 1bdb 1e3e d754 19bf 7a3e 9e3e 03b9 9cbf
000002a0: 04ab bbbf 2b37 9c3f d9f0 b33f ea11 9dbd
000002b0: 1156 d6bf 9b32 213f 5251 243f 9328 0840
000002c0: 2527 d73d d350 693e dab1 68bf e649 5bbe
000002d0: 3d6b 75bf ff9f babf 871f 80bf 7153 23bf
000002e0: b48d 24bf ff39 cabf 6828 e5bf cfbf 893c
000002f0: 2233 933f 9d28 d9be b9b9 573f 00ff 543f
00000300: 218d f43f 7ced 86bf 3b51 533f 396a efbe
00000310: 1fcd 85bf 6d31 a93e 2dae bc3e 3786 bb3f
00000320: 4fa4 223f d657 fe3f caee 24bf c40d 89bf
00000330: b24f 843d a730 923f f188 953f efd8 093f
00000340: 4803 33bf 5b5f 8fbf 5e15 1dbf 9d7a e9be
00000350: 3d66 943e 8ab1 a43e a45b 10bd c36a 0ec0
00000360: 8009 a4be 92a2 9b3f 7170 f5bf 111d d23f
00000370: d89a de3e 70b2 23bf 99ac 663f 87db c63f
00000380: ecd9 af3d 6a62 e63f 0c47 923c c3d1 98bf
00000390: 7771 35bf f4df 14bc 07f2 893e 8549 0740
000003a0: c828 803d ee7d 84bf 6280 07c0 0cb7 9bbf
000003b0: 2fd3 edbd d663 583e abec a73e 0cd0 c23e
000003c0: 8b81 4abf 5815 0f3e b7bb 29bf c78d 183f
000003d0: 8ddf 80bf d4c9 cb3d a15f 6ebe 7ad1 cc3f
000003e0: 450a 903f a578 13bf ab3f 3a3f dbc2 223f
000003f0: b5e3 d53e a521 ef3e b6db c03e 800a c73d
